…
CNN_Retino(params_model)\n\n# define computation hardware approach (GPU/CPU)\ndevice = torch.device('cuda' if torch.cuda.is_available() else 'cpu')\nRetino_model = Retino_model.to(device)","outputs":[]},{"index":19,"type":"code","source":"# Model Summary for CNN_Retino\nsummary(Retino_model, input_size=(3, 255, 255),device=device.type)","outputs":[{"kind":"text","text":"----------------------------------------------------------------\n        Layer (type)               Output Shape         Param #\n================================================================\n            Conv2d-1          [-1, 8, 253, 253]             224\n            Conv2d-2         [-1, 16, 124, 124]           1,168\n            Conv2d-3           [-1, 32, 60, 60]           4,640\n            Conv2d-4           [-1, 64, 28, 28]          18,496\n            Linear-5                  [-1, 100]       1,254,500\n            Linear-6                    [-1, 2]             202\n================================================================\nTotal params: 1,279,230\nTrainable params: 1,279,230\nNon-trainable params: 0\n----------------------------------------------------------------\nInput size (MB): 0.74\nForward/backward pass size (MB): 7.05\nParams size (MB): 4.88\nEstimated Total Size (MB): 12.67\n----------------------------------------------------------------"}]
…
